…
<pre><code>   valgrind --leak-check=yes ./darknet yolo test cfg/yolo-face.cfg yolo-face_final.weights data/faces.jpg\n==8582== Memcheck, a memory error detector\n==8582== Copyright (C) 2002-2015, and GNU GPL'd, by Julian Seward et al.\n==8582== Using Valgrind-3.11.0 and LibVEX; rerun with -h for copyright info\n==8582== Command: ./darknet yolo test cfg/yolo-face.cfg yolo-face_final.weights data/faces.jpg\n==8582== \nrunning Yolo....\nlayer     filters    size              input                output\n    0 Crop Layer: 448 x 448 -&gt; 448 x 448 x 3 image\nshift: Using default '0.000000'\n    1 conv     16  3 x 3 / 1   448 x 448 x   3   -&gt;   448 x 448 x  16\n    2 max          2 x 2 / 2   448 x 448 x  16   -&gt;   224 x 224 x  16\n    3 conv     32  3 x 3 / 1   224 x 224 x  16   -&gt;   224 x 224 x  32\n    4 max          2 x 2 / 2   224 x 224 x  32   -&gt;   112 x 112 x  32\n    5 conv     64  3 x 3 / 1   112 x 112 x  32   -&gt;   112 x 112 x  64\n    6 max          2 x 2 / 2   112 x 112 x  64   -&gt;    56 x  56 x  64\n    7 conv    128  3 x 3 / 1    56 x  56 x  64   -&gt;    56 x  56 x 128\n    8 max          2 x 2 / 2    56 x  56 x 128   -&gt;    28 x  28 x 128\n    9 conv    256  3 x 3 / 1    28 x  28 x 128   -&gt;    28 x  28 x 256\n   10 max          2 x 2 / 2    28 x  28 x 256   -&gt;    14 x  14 x 256\n   11 conv    512  3 x 3 / 1    14 x  14 x 256   -&gt;    14 x  14 x 512\n   12 max          2 x 2 / 2    14 x  14 x 512   -&gt;     7 x   7 x 512\n   13 conv   1024  3 x 3 / 1     7 x   7 x 512   -&gt;     7 x   7 x1024\n   14 conv   1024  3 x 3 / 1     7 x   7 x1024   -&gt;     7 x   7 x1024\n   15 conv   1024  3 x 3 / 1     7 x   7 x1024   -&gt;     7 x   7 x1024\n   16 connected                            50176  -&gt;   256\n   17 connected                             256  -&gt;  4096\n   18 dropout       p = 0.50               4096  -&gt;  4096\n   19 connected                            4096  -&gt;  1331\n   20 Detection Layer\nforced: Using default '0'\nLoading weights from yolo-face_final.weights...looking 
…
