…
 ['mean_squared_error','cosine', 'mae']);\n\nModel.fit(x = X_train, y = Y_train, epochs = 300, callbacks=[tensorboard], validation_data=(X_eval,Y_eval));\n</code></pre>\n\n<p>My data is of shape <code>(500,10,14)</code>:</p>\n\n<pre><code>&gt;&gt;&gt; X_train.shape\n(500,10,14)\n</code></pre>\n\n<p>And my model summary looks like such:</p>\n\n<pre><code>model.summary()\n_________________________________________________________________\nLayer (type)                 Output Shape              Param #\n=================================================================\ninput_1 (InputLayer)         (None, 10, 14)            0\n_________________________________________________________________\nLSTM_1 (LSTM)                (None, 10, 10)            1000\n_________________________________________________________________\nLSTM_2 (LSTM)                (None, 10)                840\n_________________________________________________________________\ndense_1 (Dense)              (None, 10)                110\n_________________________________________________________________\ndense_2 (Dense)              (None, 5)                 55\n_________________________________________________________________\ndense_3 (Dense)              (None, 1)                 6\n=================================================================\nTotal params: 2,011\nTrainable params: 2,011\nNon-trainable params: 0\n_________________________________________________________________\n</code></pre>\n\n<p>Although, I still get the error:</p>\n\n<pre><code>ValueError: Error when checking target: expected dense_3 to have 2 dimensions, but got array with shape (500, 10, 14)\n</c
…
eshape(Train_data_scaled.values,(500,10,14));\nY_train = np.reshape(Train_labels_scaled.values,(500,10,1));\nX_eval = np.reshape(Validation_data_scaled.values,(10,10,14));\nY_eval = np.reshape(Validation_labels_scaled.values,(10,10,1));\n</code></pre>\n\n<p>After adding the layer of RepeatVector I find another issue here is the stack trace of the same.</p>\n\n<pre><code>_________________________________________________________________\nLayer (type)                 Output Shape              Param #\n=================================================================\ninput_1 (InputLayer)         (None, 10, 14)            0\n_________________________________________________________________\nLSTM_1 (LSTM)                (None, 10)                1000\n_________________________________________________________________\nrepeat_vector_1 (RepeatVecto (None, 10, 10)            0\n_________________________________________________________________\nLSTM_2 (LSTM)                (None, 10, 10)            840\n_________________________________________________________________\ndense_1 (Dense)              (None, 10, 10)            110\n_________________________________________________________________\ndense_2 (Dense)              (None, 10, 5)             55\n_________________________________________________________________\ndense_3 (Dense)              (None, 10, 1)             6\n=================================================================\nTotal params: 2,011\nTrainable params: 2,011\nNon-trainable params: 0\n_________________________________________________________________\nTraceback (most recent call last):\n  File \".\\lstm.py\", line 76, in &lt;module&gt;\n    tf.app.run()\n  File \"C:\\Program Files\\Python36\\lib\\site-packages\\tensorflow\\python\\platform\\
…
