…
anh'), input_shape=(input_length, 1000))(x)\n# output = TimeDistributed(LSTM(10, return_sequences= False, input_shape=(100, 10), activation='tanh'), input_shape=(input_length, 100, 10))(x)\nprint(\"x\", x.shape)\n\noutput = LSTM(10, activation=\"relu\", input_shape=(50, 10))(x)\n\nmodel = Model(inputs=newsInput, outputs=output)\nmodel.summary()\n</code></pre>\n\n<p>I got it to run without any errors. But still not sure if the multiple reshapes maintained data integratory. </p>\n\n<hr>\n\n<h1>Layer (type)                 Output Shape              Param #</h1>\n\n<p>input_2 (InputLayer)         (None, 50, 100, 300)      0         </p>\n\n<hr>\n\n<p>reshape_1 (Reshape)          (None, 5000, 300)         0         </p>\n\n<hr>\n\n<p>time_distributed_1 (TimeDist (None, 5000, 10)          3010      </p>\n\n<hr>\n\n<p>reshape_2 (Reshape)          (None, 50, 100, 10)       0         </p>\n\n<hr>\n\n<p>reshape_3 (Reshape)          (None, 50, 1000)          0         </p>\n\n<hr>\n\n<p>time_distributed_2 (TimeDist (None, 50, 10)            10010     </p>\n\n<hr>\n\n<h1>lstm_1 (LSTM)                (None, 10)                840</h1>\n\n<p>Total params: 13,860\nTrainable params: 13,860\nNon-trainable params: 0</p>\n\n<hr>\n"}, {"tags": ["python", "pandas", "tree"], "comments": [{"owner": {"reputation": 1911, "user_id": 6239947, "user_type": "registered", "profile_image": "https://i.stack.imgur.com/YmSEL.jpg?s=128&g=1", "display_name": "Supratim Haldar", "link": "https://stackoverflow.com/users/6239947/supratim-haldar"}, 
…
