…
th </p>\n\n<pre><code>input_shape=(3, IMG_SIZE, IMG_SIZE)\n</code></pre>\n\n<p>If I make </p>\n\n<pre><code>input_shape=(batch_size, 3, IMG_SIZE, IMG_SIZE)\n</code></pre>\n\n<p>I get </p>\n\n<blockquote>\n  <p>ValueError: Input 0 is incompatible with layer conv2d_47: expected\n  ndim=4, found ndim=5</p>\n</blockquote>\n\n<p>Output of model.summary()</p>\n\n<pre><code>_________________________________________________________________\nLayer (type)                 Output Shape              Param #   \n=================================================================\nconv2d_34 (Conv2D)           (None, 32, 48, 48)        896       \n_________________________________________________________________\nconv2d_35 (Conv2D)           (None, 32, 46, 46)        9248      \n_________________________________________________________________\nmax_pooling2d_14 (MaxPooling (None, 32, 23, 23)        0         \n_________________________________________________________________\ndropout_14 (Dropout)         (None, 32, 23, 23)        0         \n_________________________________________________________________\nconv2d_36 (Conv2D)           (None, 64, 23, 23)        18496     \n_________________________________________________________________\nconv2d_37 (Conv2D)           (None, 64, 21, 21)        36928     \n_________________________________________________________________\nmax_pooling2d_15 (MaxPooling (None, 64, 10, 10)        0         \n_________________________________________________________________\ndropout_15 (Dropout)         (None, 64, 10, 10)        0         \n_________________________________________________________________\nconv2d_38 (Conv2D)           (None, 128, 10, 10)       73856     \n_________________________________________________________________\nconv2d_39 (Conv2D)           (None, 128, 8, 8)         147584    \n_________________________________________________________________\nmax_pooling2d_16 (MaxPooling (None, 128, 4, 4)         0         \n_________________________________________________________________\ndropout_16 (Dropout)         (None, 128, 4, 4)         0         \n_________________________________________________________________\nflatten_4 (Flatten)          (None, 2048)              0         \n_________________________________________________________________\ndense_10 (Dense)             (None, 512)               1049088   \n_________________________________________________________________\ndropout_17 (Dropout)         (None, 512)               0         \n_________________________________________________________________\ndense_11 (Dense)             (None, 43)                22059     \n=================================================================\nTotal params: 1,358,155\nTrainable params: 1,358,155\nNon-trainable params: 0\n_________________________________________________________________\nNone\n</code></pre>\n\n<p>If anyone can help, that would be mostly appreciated.</p>\n\n<p>Links\nGTSRB: <a href=\"http://benchmark.ini.rub.de/?section=gtsrb&amp;subsection=news\" r
…
